…
        "outputId": "9852ee55-fc80-4582-9ecb-701eb6ba0944",
        "colab": {
          "base_uri": "https://localhost:8080/",
          "height": 476
        }
      },
      "cell_type": "code",
      "source": [
        "model.summary()"
      ],
      "execution_count": 0,
      "outputs": [
        {
          "output_type": "stream",
          "text": [
            "_________________________________________________________________\n",
            "Layer (type)                 Output Shape              Param #   \n",
            "=================================================================\n",
            "input_3 (InputLayer)         (None, 28, 28, 1)         0         \n",
            "_________________________________________________________________\n",
            "separable_conv2d_9 (Separabl (None, 26, 26, 32)        73        \n",
            "_________________________________________________________________\n",
            "separable_conv2d_10 (Separab (None, 24, 24, 45)        1773      \n",
            "_________________________________________________________________\n",
            "max_pooling2d_5 (MaxPooling2 (None, 12, 12, 45)        0         \n",
            "_________________________________________________________________\n",
            "separable_conv2d_11 (Separab (None, 10, 10, 35)        2015      \n",
            "_________________________________________________________________\n",
            "separable_conv2d_12 (Separab (None, 8, 8, 50)          2115      \n",
            "_________________________________________________________________\n",
            "batch_normalization_3 (Batch (None, 8, 8, 50)          200       \n",
            "_________________________________________________________________\n",
            "max_pooling2d_6 (MaxPooling2 (None, 4, 4, 50)          0         \n",
            "_________________________________________________________________\n",
            "flatten_3 (Flatten)          (None, 800)               0         \n",
            "_________________________________________________________________\n",
            "dense_3 (Dense)              (None, 10)                8010      \n",
            "=================================================================\n",
            "Total params: 14,186\n",
            "Trainable params: 14,086\n",
            "Non-trainable params: 100\n",
            "_________________________________________________________________\n"
          ],
          "name": "stdout"
        }
      ]
    },
    {
      "metadata": {
        "id": "Zp6SuGrL9M3h",
…
